tensorflow_microcontroller_challenge_restaurant_game_sam_reiswig/Python/From Tiny Motion Trainer/model.tflite (tflite, 9480 bytes, 3 tensors)

sequential_1/dense_Dense1/MatMul/ReadVariableOp/transpose i1 [50, 120] scale=0.0021595974 zero_point=0
0	0x3b	0.12741624
1	0xe6	-0.05614953
2	0x2a	0.090703085
3	0xfc	-0.008638389
4	0x23	0.07558591
5	0x51	0.17492738
6	0xd3	-0.09718188
7	0x19	0.053989932
8	0x0b	0.02375557
9	0x43	0.14469302
10	0xed	-0.04103235
11	0xef	-0.036713153
12	0x10	0.034553558
13	0x34	0.11229906
14	0x2b	0.09286269
15	0x00	0.0
16	0x1e	0.064787924
17	0x2f	0.10150108
18	0xe0	-0.069107115
19	0x46	0.15117182
20	0x45	0.14901222
21	0x15	0.045351543
22	0xd3	-0.09718188
23	0x06	0.012957584
24	0xe3	-0.06262832
25	0x00	0.0
26	0xf5	-0.02375557
27	0xe4	-0.060468726
28	0xc6	-0.12525664
29	0x29	0.08854349
30	0x43	0.14469302
31	0xeb	-0.045351543
32	0xf6	-0.021595974
33	0xd7	-0.08854349
34	0x3d	0.13173544
35	0xb4	-0.1641294
36	0xb9	-0.15333141
37	0x11	0.036713153
38	0xf6	-0.021595974
39	0x42	0.14253342
40	0x0e	0.030234363
41	0xfe	-0.0043191947
42	0x4b	0.1619698
43	0xf8	-0.017276779
44	0x16	0.04751114
45	0x2d	0.09718188
46	0xfb	-0.010797987
47	0xf3	-0.028074766
48	0x19	0.053989932
49	0x3d	0.13173544
50	0x4e	0.1684486
51	0x32	0.107979864
52	0xdc	-0.077745505
53	0x19	0.053989932
54	0x30	0.10366067
55	0xbe	-0.14253342
56	0xc1	-0.13605464
57	0xdb	-0.0799051
58	0xc3	-0.13173544
59	0xec	-0.043191947
60	0x2c	0.09502228
61	0xd7	-0.08854349
62	0xf0	-0.034553558
63	0x0c	0.025915168
64	0xec	-0.043191947
65	0xf1	-0.032393962
66	0x44	0.14685261
67	0xe4	-0.060468726
68	0xf1	-0.032393962
69	0x00	0.0
70	0x32	0.107979864
71	0xb9	-0.15333141
72	0xce	-0.107979864
73	0x6a	0.22891732
74	0xfb	-0.010797987
75	0x0a	0.021595974
76	0x1d	0.06262832
77	0xc5	-0.12741624
78	0x18	0.051830336
79	0xa3	-0.20084256
80	0x28	0.086383894
81	0xe2	-0.064787924
82	0xc0	-0.13821423
83	0xf5	-0.02375557
84	0xd8	-0.086383894
85	0x15	0.045351543
86	0x2a	0.090703085
87	0xd0	-0.10366067
88	0xf8	-0.017276779
89	0xe0	-0.069107115
90	0x3b	0.12741624
91	0x46	0.15117182
92	0xe0	-0.069107115
93	0xd7	-0.08854349
94	0x1b	0.05830913
95	0x07	0.015117181
96	0xfd	-0.006478792
97	0xee	-0.038872752
98	0x04	0.008638389
99	0xa5	-0.19652335
100	0xdc	-0.077745505
101	0xb2	-0.1684486
102	0x2e	0.09934148
103	0xb0	-0.17276779
104	0xdf	-0.07126671
105	0x27	0.0842243
106	0xea	-0.04751114
107	0xce	-0.107979864
108	0x11	0.036713153
109	0xd8	-0.086383894
110	0x2d	0.09718188
111	0x23	0.07558591
112	0xcd	-0.11013947
113	0xed	-0.04103235
114	0x19	0.053989932
115	0xd0	-0.10366067
116	0x1d	0.06262832
117	0xdd	-0.07558591
118	0xfb	-0.010797987
119	0xed	-0.04103235
120	0x3d	0.13173544
121	0x77	0.25699207
122	0x10	0.034553558
123	0xe0	-0.069107115
124	0xf0	-0.034553558
125	0x1b	0.05830913
126	0x14	0.043191947
127	0x5d	0.20084256
128	0x34	0.11229906
129	0xec	-0.043191947
130	0xf3	-0.028074766
131	0x20	0.069107115
132	0xbd	-0.14469302
133	0x25	0.0799051
134	0x42	0.14253342
135	0xc6	-0.12525664
136	0x02	0.0043191947
137	0xf8	-0.017276779
138	0xe6	-0.05614953
139	0x05	0.010797987
140	0xf2	-0.030234363
141	0xc3	-0.13173544
142	0xc4	-0.12957585
143	0x10	0.034553558
144	0xed	-0.04103235
145	0xea	-0.04751114
146	0x05	0.010797987
147	0xd0	-0.10366067
148	0xd5	-0.09286269
149	0x9b	-0.21811934
150	0x07	0.015117181
151	0x00	0.0
152	0xe8	-0.051830336
153	0x26	0.0820647
154	0x58	0.19004457
155	0xb3	-0.166289
156	0x02	0.0043191947
157	0xcf	-0.10582027
158	0xed	-0.04103235
159	0x19	0.053989932
160	0xe0	-0.069107115
161	0xdc	-0.077745505
162	0xa1	-0.20516175
163	0x87	-0.2613113
164	0x2b	0.09286269
165	0x23	0.07558591
166	0x33	0.11013947
167	0x13	0.04103235
168	0x01	0.0021595974
169	0xae	-0.17708698
170	0x2f	0.10150108
171	0x61	0.20948094
172	0xf8	-0.017276779
173	0xab	-0.18356578
174	0xf4	-0.025915168
175	0x52	0.17708698
176	0x54	0.18140617
177	0x27	0.0842243
178	0xe1	-0.06694752
179	0xbc	-0.14685261
180	0x57	0.18788497
181	0xf8	-0.017276779
182	0x2b	0.09286269
183	0x28	0.086383894
184	0x67	0.22243853
185	0x64	0.21595973
186	0x08	0.017276779
187	0xf7	-0.019436376
188	0xf3	-0.028074766
189	0x10	0.034553558
190	0x08	0.017276779
191	0xae	-0.17708698
192	0x62	0.21164054
193	0xf7	-0.019436376
194	0x3c	0.12957585
195	0xe8	-0.051830336
196	0x28	0.086383894
197	0x1a	0.05614953
198	0xd9	-0.0842243
199	0x0b	0.02375557
200	0x2e	0.09934148
201	0xbd	-0.14469302
202	0xd7	-0.08854349
203	0x41	0.14037383
204	0x03	0.006478792
205	0x68	0.22459812
206	0xdc	-0.077745505
207	0x32	0.107979864
208	0x14	0.043191947
209	0x16	0.04751114
210	0x0f	0.032393962
211	0x0f	0.032393962
212	0x15	0.045351543
213	0xb8	-0.15549101
214	0xe8	-0.051830336
215	0xb3	-0.166289
216	0xea	-0.04751114
217	0xf7	-0.019436376
218	0xaf	-0.17492738
219	0xc3	-0.13173544
220	0x31	0.10582027
221	0x24	0.077745505
222	0x3e	0.13389504
223	0xed	-0.04103235
224	0x34	0.11229906
225	0x13	0.04103235
226	0xd5	-0.09286269
227	0x0b	0.02375557
228	0x1e	0.064787924
229	0xfa	-0.012957584
230	0x2b	0.09286269
231	0xe9	-0.04967074
232	0xe9	-0.04967074
233	0x20	0.069107115
234	0xc8	-0.12093745
235	0x4a	0.1598102
236	0xff	-0.0021595974
237	0x20	0.069107115
238	0xce	-0.107979864
239	0xdc	-0.077745505
240	0x2d	0.09718188
241	0x22	0.073426306
242	0x2a	0.090703085
243	0xb4	-0.1641294
244	0x09	0.019436376
245	0x1a	0.05614953
246	0xde	-0.073426306
247	0x13	0.04103235
248	0x0f	0.032393962
249	0xe4	-0.060468726
250	0xbb	-0.14901222
251	0xf5	-0.02375557
252	0xa8	-0.19004457
253	0xe5	-0.05830913
254	0xdf	-0.07126671
255	0x17	0.04967074

sequential_1/dense_Dense2/MatMul/ReadVariableOp/transpose i1 [15, 50] scale=0.0031742405 zero_point=0
0	0x23	0.111098416
1	0x24	0.114272654
2	0xf6	-0.031742405
3	0x6b	0.33964372
4	0xf8	-0.025393924
5	0xc2	-0.19680291
6	0x5a	0.28568164
7	0xe2	-0.09522721
8	0x2c	0.13966659
9	0x0b	0.034916647
10	0xd7	-0.13014387
11	0xf0	-0.050787847
12	0x28	0.12696962
13	0x42	0.20949987
14	0x32	0.15871203
15	0xf1	-0.047613606
16	0xaa	-0.27298468
17	0x14	0.06348481
18	0x26	0.12062114
19	0x56	0.27298468
20	0xda	-0.12062114
21	0x2e	0.14601506
22	0x37	0.17458323
23	0xc3	-0.19362867
24	0x16	0.06983329
25	0x1a	0.08253025
26	0x0b	0.034916647
27	0xd7	-0.13014387
28	0xff	-0.0031742405
29	0x51	0.2571135
30	0x20	0.101575695
31	0xf1	-0.047613606
32	0x2f	0.14918931
33	0xa8	-0.27933317
34	0x0d	0.041265126
35	0xbb	-0.21902259
36	0x04	0.012696962
37	0x04	0.012696962
38	0xb5	-0.23806803
39	0x55	0.26981044
40	0x1c	0.088878736
41	0xed	-0.06031057
42	0x1c	0.088878736
43	0x4c	0.24124227
44	0xe9	-0.07300753
45	0xb7	-0.23171955
46	0xda	-0.12062114
47	0x25	0.1174469
48	0x5c	0.29203013
49	0x3c	0.19045442
50	0xce	-0.15871203
51	0x47	0.22537108
52	0xce	-0.15871203
53	0x06	0.019045442
54	0xc8	-0.17775747
55	0xc2	-0.19680291
56	0x31	0.15553778
57	0x37	0.17458323
58	0x3a	0.18410595
59	0xef	-0.05396209
60	0xc0	-0.20315139
61	0xc4	-0.19045442
62	0xa9	-0.27615893
63	0xbe	-0.20949987
64	0x3a	0.18410595
65	0x24	0.114272654
66	0x03	0.009522721
67	0xab	-0.26981044
68	0xa3	-0.29520437
69	0xb0	-0.25393924
70	0x3c	0.19045442
71	0xe4	-0.088878736
72	0xe2	-0.09522721
73	0xdf	-0.10474993
74	0x4a	0.2348938
75	0x2c	0.13966659
76	0x5e	0.29837862
77	0x0c	0.038090885
78	0x44	0.21584836
79	0xed	-0.06031057
80	0xc3	-0.19362867
81	0x07	0.022219684
82	0x17	0.07300753
83	0x2a	0.1333181
84	0x0f	0.047613606
85	0xf8	-0.025393924
86	0x24	0.114272654
87	0x37	0.17458323
88	0x1c	0.088878736
89	0x2d	0.14284082
90	0x24	0.114272654
91	0xf4	-0.038090885
92	0xc9	-0.17458323
93	0xb4	-0.24124227
94	0xfd	-0.009522721
95	0xff	-0.0031742405
96	0x21	0.10474993
97	0xd9	-0.123795375
98	0xd9	-0.123795375
99	0xf5	-0.034916647
100	0xee	-0.057136327
101	0x43	0.21267411
102	0x41	0.20632564
103	0xe7	-0.079356015
104	0x4f	0.250765
105	0xf0	-0.050787847
106	0xe3	-0.092052974
107	0xf8	-0.025393924
108	0x07	0.022219684
109	0x01	0.0031742405
110	0x03	0.009522721
111	0x1b	0.08570449
112	0xd4	-0.13966659
113	0xbc	-0.21584836
114	0xe8	-0.07618177
115	0x39	0.1809317
116	0x43	0.21267411
117	0x11	0.05396209
118	0x24	0.114272654
119	0xfb	-0.015871203
120	0x30	0.15236354
121	0xf3	-0.041265126
122	0xdb	-0.1174469
123	0xcd	-0.16188626
124	0xd4	-0.13966659
125	0xfa	-0.019045442
126	0xf4	-0.038090885
127	0x03	0.009522721
128	0xfe	-0.006348481
129	0xab	-0.26981044
130	0x40	0.20315139
131	0x31	0.15553778
132	0x42	0.20949987
133	0xdf	-0.10474993
134	0x0e	0.044439368
135	0x4d	0.24441652
136	0x02	0.006348481
137	0x18	0.07618177
138	0xdb	-0.1174469
139	0xf9	-0.022219684
140	0x48	0.22854531
141	0xd8	-0.12696962
142	0x69	0.33329526
143	0xed	-0.06031057
144	0xf4	-0.038090885
145	0x20	0.101575695
146	0x29	0.13014387
147	0xa5	-0.28885588
148	0xd5	-0.13649234
149	0x45	0.21902259
150	0x06	0.019045442
151	0x90	-0.35551494
152	0xfa	-0.019045442
153	0xd9	-0.123795375
154	0xf9	-0.022219684
155	0x60	0.30472708
156	0xf4	-0.038090885
157	0x2c	0.13966659
158	0x61	0.30790132
159	0xfc	-0.012696962
160	0xe3	-0.092052974
161	0x63	0.3142498
162	0x02	0.006348481
163	0x2f	0.14918931
164	0xcf	-0.15553778
165	0x39	0.1809317
166	0x9d	-0.3142498
167	0xe5	-0.08570449
168	0x04	0.012696962
169	0x24	0.114272654
170	0xfa	-0.019045442
171	0xa6	-0.28568164
172	0x55	0.26981044
173	0xe7	-0.079356015
174	0xf9	-0.022219684
175	0x25	0.1174469
176	0xd8	-0.12696962
177	0xfe	-0.006348481
178	0x06	0.019045442
179	0x04	0.012696962
180	0x07	0.022219684
181	0x1f	0.09840146
182	0x4a	0.2348938
183	0x7d	0.39678004
184	0xfb	-0.015871203
185	0x1e	0.09522721
186	0xa2	-0.29837862
187	0x3b	0.1872802
188	0xb3	-0.24441652
189	0x51	0.2571135
190	0x0a	0.031742405
191	0xd7	-0.13014387
192	0x56	0.27298468
193	0x1a	0.08253025
194	0xc1	-0.19997714
195	0x0d	0.041265126
196	0x4d	0.24441652
197	0x6b	0.33964372
198	0x45	0.21902259
199	0x20	0.101575695
200	0xeb	-0.06665905
201	0x7f	0.40312853
202	0x43	0.21267411
203	0xfd	-0.009522721
204	0x03	0.009522721
205	0xfb	-0.015871203
206	0xbf	-0.20632564
207	0x0b	0.034916647
208	0xbf	-0.20632564
209	0xf8	-0.025393924
210	0x18	0.07618177
211	0xcb	-0.16823475
212	0xa0	-0.30472708
213	0xd4	-0.13966659
214	0xe2	-0.09522721
215	0xdf	-0.10474993
216	0xe8	-0.07618177
217	0x0f	0.047613606
218	0xd7	-0.13014387
219	0xfa	-0.019045442
220	0xea	-0.06983329
221	0x3c	0.19045442
222	0xe9	-0.07300753
223	0x9f	-0.30790132
224	0x2e	0.14601506
225	0xcb	-0.16823475
226	0xa3	-0.29520437
227	0x38	0.17775747
228	0x31	0.15553778
229	0x04	0.012696962
230	0xc7	-0.1809317
231	0x48	0.22854531
232	0xe7	-0.079356015
233	0xd8	-0.12696962
234	0x0c	0.038090885
235	0x45	0.21902259
236	0xd7	-0.13014387
237	0xe6	-0.08253025
238	0x3f	0.19997714
239	0x33	0.16188626
240	0xd3	-0.14284082
241	0x2b	0.13649234
242	0x2f	0.14918931
243	0x67	0.32694677
244	0xb8	-0.22854531
245	0x31	0.15553778
246	0x34	0.1650605
247	0x4a	0.2348938
248	0xfb	-0.015871203
249	0x39	0.1809317
250	0x11	0.05396209
251	0x97	-0.33329526
252	0x1b	0.08570449
253	0x61	0.30790132
254	0x30	0.15236354
255	0x28	0.12696962

sequential_1/dense_Dense3/MatMul/ReadVariableOp/transpose i1 [2, 15] scale=0.0054289917 zero_point=0
0	0xfe	-0.0108579835
1	0xea	-0.11943782
2	0x37	0.29859453
3	0xc8	-0.30402353
4	0x28	0.21715967
5	0x0c	0.0651479
6	0xb8	-0.3908874
7	0xba	-0.3800294
8	0x4e	0.42346135
9	0xef	-0.09229286
10	0x21	0.17915672
11	0x35	0.28773656
12	0x3f	0.34202647
13	0xfb	-0.02714496
14	0xf9	-0.03800294
15	0x13	0.103150845
16	0xe8	-0.1302958
17	0x16	0.11943782
18	0x7f	0.689482
19	0x87	-0.656908
20	0x55	0.4614643
21	0x07	0.03800294
22	0xf9	-0.03800294
23	0x8c	-0.62976307
24	0x68	0.56461513
25	0x4b	0.40717438
26	0x02	0.0108579835
27	0xe5	-0.14658278
28	0xa0	-0.5211832
29	0xd0	-0.2605916
