tensorflow_microcontroller_challenge_restaurant_game_sam_reiswig/Python/From Tiny Motion Trainer/model.tflite (tflite, 29304 bytes, 6 tensors)

sequential_2/dense_Dense4/MatMul/ReadVariableOp/transpose f4 [50, 120]
-0.041558556 0.080790944 0.046538364 -0.09794756 -0.14839762 0.08212188 0.058814336 0.20495369
0.015061788 0.002911503 -0.00574153 -0.012839068 0.009729045 0.16453196 0.068778165 0.17601009
-0.04060157 -0.035359934 -0.14243816 -0.16664852 -0.028258905 -0.078209214 0.16715297 0.11830343
-0.09086752 -0.10735222 -0.009705537 -0.056326624 -0.027935531 0.10305533 -0.028913613 -0.16447437
-0.10936864 -0.006800227 -0.012341352 0.10378633 0.06072103 -0.028512226 0.09622637 0.036301352
-0.13620892 0.042889662 -0.02212074 -0.028596323 0.010085254 -0.11114736 0.06671711 -0.1206912
-0.16215809 0.0729639 0.14921494 -0.10642785 -0.15027232 -0.096185304 0.015406831 -0.05277293
0.1232137 -0.09637491 0.043536264 -0.058538556 -0.05449911 0.11592131 0.01508895 0.0254191
0.18162005 0.042007823 0.081722036 0.022389876 0.18966639 0.079115845 0.13864084 -0.06656299
0.056479055 0.0014609965 0.12974726 0.11820488 0.054309096 0.008302172 -0.19943616 0.12011221
-0.00016881626 0.16986048 0.0357095 -0.02244838 -0.062721126 -0.13671473 0.06901117 -0.17429017
0.13617808 -0.15010242 -0.19632214 0.08003149 0.024067843 0.0220726 -0.047894884 0.026849007
0.07807393 0.104896165 -0.034725685 0.0008806332 -0.08802778 0.003208648 -0.14212431 -0.1711327
-0.077151835 -0.027111001 0.028588727 -0.043664258 -0.025433164 -0.044062946 0.045321357 -0.036673892
0.10757574 -0.029920034 -0.10936567 -0.0019532156 -0.06035823 -0.03564592 -0.19458598 0.08138438
-0.038838062 -0.15967014 0.039558366 0.0038165885 -0.17149857 0.018657804 -0.24483837 -0.15724745
0.07717534 0.11666115 0.15088543 0.08944322 -0.037037585 0.13286667 -0.048184518 -0.054464035
0.05827564 -0.04858765 -0.020334294 -0.041718334 -0.09546408 -0.06256027 0.07030281 -0.06010129
-0.054913886 0.05876798 0.03524047 -0.073037274 0.026502162 -0.03813065 -0.26192513 0.0130556235
0.035940338 -0.062453162 0.069888726 0.06605629 -0.0664607 0.18914214 0.15363438 0.05570048
-0.038084984 -0.11948341 -0.16780373 0.0149595905 0.11879533 -0.110425934 0.06405687 -0.029710257
0.026765024 0.07504902 -0.11210359 -0.18677703 0.1292454 0.10969726 -0.035260852 -0.0027580985
-0.056585323 0.03143141 -0.012153142 -0.07199155 0.09048518 0.030293435 0.15757951 0.03375518
-0.14044756 -0.14702252 -0.015572891 -0.044229344 0.11530984 -0.020218626 0.010233296 0.028561871
0.0057782936 -0.007645922 0.13394831 -0.10305251 0.0058754194 0.092431635 -0.09301 0.060943704
0.25813693 0.07945588 -0.07736942 -0.12907869 -0.12131646 -0.004094296 -0.021470997 0.11764242
0.039572585 -0.1746295 0.13754699 0.081785746 0.017414704 -0.15507889 -0.02709039 0.072539754
-0.06893497 -0.07438013 -0.15649673 -0.05019615 0.01897402 -0.00032739 -0.11833401 -0.0958302
0.05872216 0.04273032 0.1281161 0.015643125 0.07511928 0.09398803 -0.0031472961 -0.066906065
-0.01083408 -0.09014344 0.08607508 0.071197845 -0.10444588 0.02672008 -0.006931965 0.009404481
0.0001301519 0.029452365 0.022534873 0.05057009 0.17672168 0.027116245 -0.025821136 0.16055708
-0.10643189 0.07450754 0.117206074 -0.037992887 -0.025504658 0.09562793 0.028822329 0.012284372
00000000: 4e39 2abd b975 a53d 039f 3e3d bb98 c8bd
00000010: 8cf5 17be 842f a83d 4de7 703d 61df 513e
00000020: b8c5 763c eace 3e3b 7223 bcbb f45a 52bc
00000030: 9366 1f3c 117b 283e 91db 8c3d fd3b 343e
00000040: d54d 26bd 94d5 10bd 4fdb 11be e9a5 2abe
00000050: 387f e7bc 272c a0bd 262a 2b3e 1249 f23d
00000060: c018 babd 7bdb dbbd f903 1fbc bfb6 66bd
00000070: 0ed9 e4bc ac0e d33d 3edc ecbc f86b 28be
00000080: aafc dfbd 70d4 debb 6233 4abc ed8d d43d
00000090: 9db6 783d 7992 e9bc 5512 c53d bab0 143d
000000a0: 5a7a 0bbe 12ad 2f3d 8e36 b5bc d642 eabc
000000b0: 9f3c 253c 3aa1 e3bd fba2 883d f32c f7bd
000000c0: c50c 26be 196e 953d cdcb 183e d8f6 d9bd
000000d0: fde0 19be cdfc c4bd ef6c 7c3c 6e28 58bd
000000e0: 7757 fc3d 3560 c5bd 1553 323d 20c6 6fbd
000000f0: 753a 5fbd 2768 ed3d a537 773c b73b d03c
00000100: 9bfa 393e 6510 2c3d e25d a73d f96a b73c
00000110: e837 423e 7d07 a23d ddf7 0d3e 2d52 88bd
00000120: 9556 673d e87e bf3a 77dc 043e 6615 f23d
00000130: 3773 5e3d d505 083c fe38 4cbe 64fd f53d
00000140: 4504 31b9 e8ef 2d3e 2044 123d aae5 b7bc
00000150: ef73 80bd f2fe 0bbe ba55 8d3d 1f79 32be
00000160: 4472 0b3e 73b4 19be ac08 49be 8de7 a33d
00000170: ed29 c53c 99d1 b43c 6d2d 44bd 73f2 db3c
00000180: 3ae5 9f3d cdd3 d63d 853c 0ebd 4bda 663a
00000190: e947 b4bd 2e48 523b 0989 11be 693d 2fbe
000001a0: c801 9ebd e417 debc e832 ea3c 4bd9 32bd
000001b0: 3659 d0bc 597b 34bd e3a2 393d 5d37 16bd
000001c0: ab50 dc3d dc1a f5bc 1cfb dfbd 8501 00bb
000001d0: 313a 77bd 7501 12bd 8c41 47be dbac a63d
000001e0: a914 1fbd 9280 23be f407 223d bb1f 7a3b
000001f0: 529d 2fbe 40d8 983c e9b6 7abe 7a05 21be
00000200: 1b0e 9e3d 0aec ee3d b681 1a3e 022e b73d
00000210: b9b4 17bd 330e 083e 215d 45bd ae15 5fbd
00000220: 70b2 6e3d d803 47bd 1b94 a6bc d8e0 2abd
00000230: ac82 c3bd 991f 80bd ebfa 8f3d c52c 76bd
00000240: 62ed 60bd b2b6 703d 5058 103d 9194 95bd
00000250: 101b d93c e22e 1cbd 0d1b 86be 41e7 553c
00000260: 2d36 133d e3ce 7fbd d221 8f3d 8548 873d
00000270: 8c1c 88bd 7aae 413e 5552 1d3e 3026 643d
00000280: 00ff 1bbd b8b3 f4bd bed4 2bbe 1219 753c
00000290: f74a f33d fe26 e2bd 4030 833d ed62 f3bc
000002a0: 5342 db3c 4db3 993d 9196 e5bd 7a42 3fbe
000002b0: e858 043e f5a8 e03d af6d 10bd 37c1 34bb
000002c0: 03c6 67bd 39be 003d f91d 47bc 4e70 93bd
000002d0: 4b50 b93d f029 f83c 865c 213e df42 0a3d
000002e0: 7cd1 0fbe 128d 16be 7025 7fbc d429 35bd
000002f0: 9127 ec3d 88a1 a5bc 8ea9 273c 96fa e93c
00000300: d757 bd3b a48a fabb bf29 093e 320d d3bd
00000310: 9786 c03b cc4c bd3d 077c bebd 1ba0 793d
00000320: 862a 843e c4b9 a23d dc73 9ebd 342d 04be
00000330: c474 f8bd 7229 86bb f2e3 afbc 82ee f03d
00000340: dd16 223d 13d2 32be 1ed9 0c3e 497f a73d
00000350: 48a9 8e3c 00cd 1ebe aaec ddbc b98f 943d
00000360: c72d 8dbd 9c54 98bd ae40 20be 7a9a 4dbd
00000370: 676f 9b3c 8ba5 abb9 1a59 f2bd a042 c4bd
00000380: a686 703d fd05 2f3d de30 033e 0326 803c
00000390: 23d8 993d cc7c c03d de42 4ebb 0c06 89bd
000003a0: 6d81 31bc 209d b8bd 2248 b03d 2dd0 913d
000003b0: b9e7 d5bd 12e4 da3c 8925 e3bb 4115 1a3c
000003c0: 6279 0839 1646 f13c 0e9b b83c 9522 4f3d
000003d0: 87f6 343e e322 de3c d986 d3bc 1369 243e
000003e0: f6f8 d9bd 6997 983d bd09 f03d 6e9e 1bbd
000003f0: 25ef d0bc 93d8 c33d ce1c ec3c 6444 493c

sequential_2/dense_Dense4/MatMul_bias f4 [50]
0.058761552 0.108773485 0.08934961 0.013515801 0.071658045 -0.03292483 0.030284246 0.044631828
-0.014394969 0.0460713 0.19522834 0.0906588 0.11299904 0.07064954 0.15467338 -0.012659835
0.09803538 0.098765895 0.10075311 0.027319878 -0.02485978 0.19900972 0.1207104 -0.02697546
-0.055751134 0.0054957583 0.015526644 0.07380134 0.09903403 0.14876273 0.20346633 -0.005648086
0.04224691 0.03885929 -0.054840032 0.0055086496 0.11533587 0.098612845 -0.020918924 0.26483423
0.19001907 -0.011308711 0.03710766 0.056506395 0.1269663 0.05747735 0.10030951 -0.0038576806
0.13141729 0.13955592
00000000: f4af 703d a2c4 de3d eefc b63d 6171 5d3c
00000010: 74c1 923d 30dc 06bd ab16 f83c ddcf 363d
00000020: e0d8 6bbc 42b5 3c3d f0e9 473e 52ab b93d
00000030: 0a6c e73d b5b0 903d b362 1e3e 326b 4fbc
00000040: c6c6 c83d c645 ca3d a657 ce3d f0cd df3c
00000050: bda6 cbbc 34c9 4b3e 0437 f73d a4fb dcbc
00000060: 4d5b 64bd c315 b43b 7763 7e3c 2825 973d
00000070: 5bd2 ca3d 4255 183e 7a59 503e 9413 b9bb
00000080: 190b 2d3d eb2a 1f3d f19f 60bd e781 b43b
00000090: 3635 ec3d 88f5 c93d 2a5e abbc 5a98 873e
000000a0: 5c94 423e 2c48 39bc 34fe 173d 4073 673d
000000b0: 7403 023e 5f6d 6b3d 136f cd3d 24d1 7cbb
000000c0: 4192 063e bfe7 0e3e

sequential_2/dense_Dense5/MatMul/ReadVariableOp/transpose f4 [15, 50]
-0.3211732 -0.24137062 -0.08384346 0.26478404 0.06000731 0.13021022 -0.2908682 0.043056373
0.20104194 -0.12458373 -0.11620641 -0.25797647 -0.20813459 0.027096724 -0.28617018 0.3111208
-0.021160573 0.091938145 -0.35179004 -0.09929794 -0.1859234 0.104088366 0.01801013 0.21209133
-0.042293318 -0.027894855 -0.015021361 0.17595778 -0.12149533 0.0836356 -0.12085064 0.28033775
0.17634 0.10578775 0.19866964 -0.029741159 -0.27765846 0.078853235 -0.07227307 0.15491404
-0.013292646 0.033997133 0.14279258 -0.20619042 -0.088774875 0.08907873 0.17308258 -0.27130267
-0.013910166 -0.04979081 0.2981002 0.11201975 -0.11990491 0.039837494 -0.31810948 0.24726772
-0.09639281 -0.0041072797 0.37472638 -0.3016079 -0.05051905 0.22023536 -0.20714422 0.21054575
-0.048797082 0.10537463 0.32339993 0.1787341 0.101925395 0.194137 0.22564785 -0.104677446
-0.1512113 -0.0432685 -0.09481047 0.31349847 0.0054800194 0.16695695 0.29793102 -0.10868924
-0.17242144 -0.21574527 -0.15355162 0.24190469 -0.078397855 0.19198291 -0.15336563 -0.08133911
0.07704881 -0.19568315 0.08775798 -0.22003445 0.07923579 0.17270319 0.49355468 -0.07204749
0.062127046 -0.021357642 -0.12885033 -0.09385275 -0.22457425 0.11658416 0.000318993 -0.09782317
0.076539665 0.18155077 0.0044279755 -0.1826652 0.36702356 -0.24064039 0.038316965 -0.03352878
0.07830619 0.24530146 0.122128524 0.0055198306 0.33572403 0.30063936 0.17178614 -0.08114609
-0.014388096 -0.0993279 0.19504422 -0.06574293 0.010343774 -0.06531251 -0.10882831 -0.35893464
0.2807977 0.30908063 -0.21019197 -0.19139843 -0.021214375 -0.054708894 -0.16236818 0.18644258
0.057915334 0.2687723 -0.13981865 0.013412638 0.3126908 0.022912266 -0.011143847 0.115616955
-0.031685226 0.11341456 -0.33676526 0.20480898 0.08068052 0.16289292 -0.05959415 -0.2050798
0.060710926 -0.07907815 0.2037611 -0.24103333 -0.2526917 -0.0046055224 0.045984164 -0.085879184
-0.11329951 0.28520185 -0.15401988 0.05669942 0.13133228 0.10264653 -0.097635895 0.09840297
-0.19702923 -0.17196468 -0.04040924 0.14560975 0.037453923 0.007930339 -0.17317107 -0.043508746
-0.049213834 -0.09344066 0.13125624 -0.1257631 0.07637171 -0.18725936 0.030733451 -0.31009725
-0.042823955 -0.12945698 0.15929921 -0.0032512157 0.05506116 -0.056987725 0.31270632 -0.20155305
0.14975126 0.13588707 -0.04042557 -0.007016777 0.15960883 0.20505992 0.3624916 0.3398841
0.044007327 0.07591419 -0.15288809 -0.11123191 0.030667013 -0.055207595 -0.1299675 -0.033959057
-0.18741557 -0.062925465 -0.037615724 -0.07940491 -0.05878264 -0.0028327988 -0.03944663 -0.015167706
0.11173219 -0.044462856 0.04621272 0.15506467 0.18025906 -0.16396865 -0.2621129 0.0026278507
0.057712987 -0.061075583 0.13396005 0.08756187 0.30654144 0.06848381 0.14987902 -0.19710025
0.22852197 0.32102132 0.116512254 -0.30534047 0.117633015 0.13680677 -0.07741493 -0.2313247
0.16389428 -0.3215305 -0.01731122 -0.005200446 0.25589433 -0.3207261 -0.020857459 -0.032661688
-0.015091148 -0.1742746 0.14246266 0.27523315 0.07954869 -0.04918044 0.22770043 -0.11441631
00000000: d070 a4be dc29 77be 1fb6 abbd c691 873e
00000010: 3aca 753d d455 053e adec 94be e15b 303d
00000020: f0dd 4d3e c125 ffbd a0fd edbd 7e15 84be
00000030: 3c21 55be f3f9 dd3c e684 92be 3a4b 9f3e
00000040: f058 adbc 114a bc3d d31d b4be b85c cbbd
00000050: b462 3ebe 482c d53d fb89 933c 782e 593e
00000060: c23b 2dbd c083 e4bc 281c 76bc 472e 343e
00000070: 8bd2 f8bd 2449 ab3d 8a80 f7bd 6e88 8f3e
00000080: 7992 343e 3fa7 d83d 0e70 4b3e bba3 f3bc
00000090: 4029 8ebe ce7d a13d e703 94bd c9a1 1e3e
000000a0: 66c9 59bc 9440 0b3d 3838 123e 9523 53be
000000b0: 9acf b5bd e96e b63d 8f3c 313e 2fe8 8abe
000000c0: 77e7 63bc 73f1 4bbd 97a0 983e 9c6a e53d
000000d0: b590 f5bd a42c 233d 3fdf a2be c033 7d3e
000000e0: 9869 c5bd 5c96 86bb 23dc bf3e 5a6c 9abe
000000f0: 10ed 4ebd 6185 613e 9d1d 54be 4e99 573e
00000100: 73df 47bd a7ce d73d ad94 a53e 1206 373e
00000110: 43be d03d dacb 463e 3b10 673e 2161 d6bd
00000120: 23d7 1abe 503a 31bd fe2b c2bd df82 a03e
00000130: bc91 b33b c3f6 2a3e 6a8a 983e 7798 debd
00000140: 3f8f 30be 54ec 5cbe a33c 1dbe ddb5 773e
00000150: 0e8f a0bd 2b97 443e e10b 1dbe 1f95 a6bd
00000160: c4cb 9d3d 2a61 48be 75ba b33d b650 61be
00000170: 6046 a23d 1bd9 303e 33b3 fc3e a28d 93bd
00000180: ee78 7e3d 39f6 aebc 57f1 03be df35 c0bd
00000190: cbf6 65be adc3 ee3d 843e a739 8457 c8bd
000001a0: d4c0 9c3d 72e8 393e 8d18 913b 960c 3bbe
000001b0: 83ea bb3e 6f6a 76be 40f2 1c3d 7955 09bd
000001c0: ff5e a03d 4e30 7b3e 851e fa3d b2df b43b
000001d0: 05e4 ab3e 67ed 993e b5e8 2f3e ec2f a6bd
000001e0: 0cbc 6bbc 6d6c cbbd acb9 473e 3ba4 86bd
000001f0: ef78 293c 91c2 85bd 61e1 debd 48c6 b7be
00000200: b7c4 8f3e d13f 9e3e 903c 57be f3fd 43be
00000210: c5c9 adbc 6f16 60bd d843 26be ceea 3e3e
00000220: a138 6d3d 869c 893e 9f2c 0fbe aec0 5b3c
00000230: 0219 a03e 81b2 bb3c af94 36bc 95c8 ec3d
00000240: 5ec8 01bd e545 e83d 7f6c acbe 72b9 513e
00000250: d43b a53d 67cd 263e ff18 74bd 7000 52be
00000260: 05ac 783d baf3 a1bd c0a6 503e 71d1 76be
00000270: ce60 81be ece9 96bb e459 3c3d 6de1 afbd
00000280: 9309 e8bd fa05 923e 63b7 1dbe a73d 683d
00000290: f87b 063e 5838 d23d 54f5 c7bd 7f87 c93d
000002a0: 08c2 49be 8217 30be 2984 25bd b91a 153e
000002b0: 4969 193d 41ee 013c c253 31be 3a36 32bd
000002c0: 7294 49bd d15d bfbd 0968 063e 0bc8 00be
000002d0: c568 9c3d ebc0 3fbe b8c4 fb3c 11c5 9ebe
000002e0: 2c68 2fbd 5f90 04be 551f 233e 5912 55bb
000002f0: d087 613d f66b 69bd 0b1b a03e ec63 4ebe
00000300: 6558 193e fb25 0b3e 4895 25bd feec e5bb
00000310: 7f70 233e 3afb 513e 8098 b93e 4a05 ae3e
00000320: 0741 343d e678 9b3d b28e 1cbe 8ecd e3bd
00000330: 6339 fb3c 5c21 62bd 3316 05be a718 0bbd
00000340: dee9 3fbe 11df 80bd f212 1abd 0b9f a2bd
00000350: 11c6 70bd 7aa6 39bb ca92 21bd f881 78bc
00000360: d9d3 e43d af1e 36bd 8d49 3d3d 46c9 1e3e
00000370: d595 383e 66e7 27be a933 86be 0538 2c3b
00000380: 7464 6c3d 642a 7abd d32c 093e a353 b33d
00000390: 00f3 9c3e 3d41 8c3d e379 193e a6d4 49be
000003a0: aa01 6a3e e85c a43e fa9d ee3d 9655 9cbe
000003b0: 94e9 f03d 1317 0c3e b88b 9ebd 62e0 6cbe
000003c0: e7d3 273e a59f a4be 42d0 8dbc 8168 aabb
000003d0: 9504 833e 3636 a4be 43dd aabc 43c8 05bd
000003e0: dd40 77bc 0a75 32be bbe1 113e 5ceb 8c3e
000003f0: 6cea a23d 6e71 49bd 4d2a 693e 1953 eabd

sequential_2/dense_Dense5/MatMul_bias f4 [15]
-0.08470303 0.024943503 0.047999196 0.08209652 -0.04824485 0.058691204 0.061776552 0.21086287
0.07446643 -0.039489783 0.18548559 -0.03075474 0.013355856 -0.0014963443 0.18783098
00000000: c878 adbd 5156 cc3c ce9a 443d 3822 a83d
00000010: 649c 45bd 3066 703d 6909 7d3d 70ec 573e
00000020: db81 983d 0ac0 21bd efef 3d3e 5df1 fbbc
00000030: 85d2 5a3c fc20 c4ba c456 403e

sequential_2/dense_Dense6/MatMul/ReadVariableOp/transpose f4 [6, 15]
0.00095170335 0.14493473 -0.513427 -0.116764046 -0.22412339 -0.40403542 -0.5025037 0.5639622
-0.12004514 0.5293021 -0.37903085 -0.36083624 0.40282613 -0.3508464 0.002634252 0.30769855
0.1986839 -0.0026089498 0.04572387 0.16594079 0.2575701 -0.3270055 -0.33582476 -0.016780034
0.34898812 0.28707454 0.5303394 0.1305434 -0.101497285 -0.124207795 0.206095 0.65075225
0.61667573 -0.12298837 -0.29470152 -0.20047884 0.15275049 -0.32265347 0.14652668 -0.12670118
-0.32842055 0.33757514 -0.12597162 -0.14871272 -0.87677956 -0.07519998 -0.2824981 -0.58887684
-0.3674442 0.16978373 0.64815766 0.32114023 -0.24381414 0.33123195 0.18768515 -0.47752175
-0.4413394 0.22137347 0.21295324 -0.01713724 0.03174873 -0.30492607 -0.30740908 -0.44889578
-0.09634206 0.043394867 -0.40243503 -0.6501149 0.47940263 -0.066475876 0.16791555 0.21814623
-0.4884912 -0.23495601 0.2927593 -0.28614068 -0.56359434 0.24885078 0.29121035 0.08794213
0.19264914 0.18193033 0.0727811 -0.06777457 -0.20556077 0.5337483 -0.16989087 -0.31766954
-0.10551189 -0.25511065
00000000: bb7b 793a c569 143e f46f 03bf fd21 efbd
00000010: 9a80 65be bbdd cebe 15a4 00bf d45f 103f
00000020: 3ada f5bd 5880 073f 5510 c2be 87bf b8be
00000030: 3a3f ce3e 24a2 b3be 6aa3 2c3b aa8a 9d3e
00000040: cb73 4b3e eafa 2abb f448 3b3d 62ec 293e
00000050: 3ae0 833e 446d a7be 39f1 abbe 4876 89bc
00000060: 92ae b23e 6ffb 923e 53c4 073f 2bad 053e
00000070: cfdd cfbd a860 febd 910a 533e b397 263f
00000080: 76de 1d3f 54e1 fbbd 1ee3 96be 534a 4dbe
00000090: a06a 1c3e d632 a5be 170b 163e f4bd 01be
000000a0: bd26 a8be a6d6 ac3e b4fe 00be 2648 18be
000000b0: a074 60bf 7202 9abd 97a3 90be a2c0 16bf
000000c0: a521 bcbe c9db 2d3e a9ed 253f 7e6c a43e
000000d0: 6aaa 79be 3c97 a93e 8930 403e bb7d f4be
000000e0: 3df7 e1be baaf 623e 6a10 5a3e 6663 8cbc
000000f0: f50a 023d 451f 9cbe b964 9dbe abd5 e5be
00000100: fc4e c5bd d1be 313d f70b cebe ee6d 26bf
00000110: 4374 f53e 8124 88bd 0ef2 2b3e ba61 5f3e
00000120: 851b fabe 4f98 70be 8ce4 953e 0881 92be
00000130: b847 10bf bdd2 7e3e 8619 953e 011b b43d
00000140: d145 453e f24b 3a3e 420e 953d 65cd 8abd
00000150: 867e 52be bba3 083f dff7 2dbe 95a5 a2be
00000160: 9e16 d8bd dd9d 82be

sequential_2/dense_Dense6/MatMul_bias f4 [6]
0.009932566 -0.50505716 -0.16904157 0.00041989484 0.13531654 0.059916347
00000000: 34bc 223c 6d4b 01bf 3c19 2dbe 5525 dc39
00000010: 6b90 0a3e d86a 753d
